2023-05-10_404CTF-2023/06. ai/Notre modèle/challenge_files/404_model.pth (torch, 180831 bytes, 10 tensors)

conv1.weight f4 [6, 1, 5, 5]
00000000: 8623 f9bd 052f 7d39 6753 233e 2878 b33e
00000010: e9c2 543e 1c8f 953d eb41 5d3e da39 983e
00000020: 90ae 8a3e 27f1 383e 9f40 c2bd b33e 843c
00000030: 11c7 63be e794 50be 4950 2abd f3af 473b
00000040: ea04 1bbe 3e23 e7be a398 81bd b684 ba3d
00000050: a7e5 ec3c 95f9 8dbe 4b26 e0bd 1870 88bd
00000060: 40bb b3bc 0396 183d bb38 99bd e321 adbe
00000070: abdc cbbe d1b7 debe c3ee 68be 30d6 56bd
00000080: dd8b c83c 8c17 a6be 20e5 a1be 9d30 8ebd
00000090: 1cbc 933c 36a1 263e 9daa b63d 7623 273d
000000a0: 20ea a83e e781 923d 6e5f 853e d2a8 173d
000000b0: ab02 933e 6280 4b3e b8ab 54bd c403 c53d
000000c0: ba01 523e e390 a83c 00b2 d7bd 7a29 0cbe
000000d0: 020d 7bbe ab2c 61be f18d a3be 3bff 253e
000000e0: a395 aa3d bc7e b83d 027a 2d3e b305 53bd
000000f0: 1174 37bc eaa4 b73e ceb8 cb3e 9497 053e
00000100: 61d4 1b3e aff9 5d3e 581b 17be d0dc 973b
00000110: 7472 7a3e 0d81 973e 61bf 83be 09aa cdbd
00000120: c471 7fbe 7608 59be 1712 33bd 14df a83e
00000130: 31c4 1a3e a807 993e ec75 383e 188c ae3e
00000140: 66ef 29bd 0c60 d93d 15ec 91bd 52bd a83b
00000150: 63f9 99bd 056c 0bbe 5a36 16be 3d38 56be
00000160: 8278 75be 3bf5 85be c062 ecbe e352 fabe
00000170: 6c6a d4be 5e1d b3be 2cc1 e5be 940a c6be
00000180: 1f30 3abe 1d11 e1be ef71 37be 9a22 bfbe
00000190: 40f6 063d aacc 803d 0082 c4bd f7f1 9ebe
000001a0: a17f e4be 56c6 91bd d22a a23e 1671 2f3e
000001b0: e51c 7abd 913c fcbc 5118 4d3e a6de a63e
000001c0: 3e7d d93e d200 6b3e e4a7 bd3e 57d3 1bbe
000001d0: 8b04 c5bd 9411 303e 76d7 993e e5f8 553e
000001e0: 119f 03be 8ef2 29be 2a62 9ebe c693 bdbd
000001f0: 43d0 983d d904 aabe 0a54 34be 66c4 22be
00000200: 7091 9d3c 8ae7 583d b3ce 44bc 7a40 50be
00000210: 283d 97bd 493d 613e c68c 27bd 07db 9fbd
00000220: ffc6 3ebc 0d93 1a3c e2ce b2bc 892e e73d
00000230: 4f78 68be ba9e 533d 26e5 9e3d 981e 4fbc
00000240: bfc0 863e b97e 2dbe a9af 40be d187 dbbd
00000250: 3deb 6fbd c3de 8ebc
-0.12164979 0.00024145476 0.15949784 0.3505261 0.20777477 0.073026866 0.21607177 0.29731637
0.27086306 0.18060742 -0.09484982 0.016143179 -0.22243907 -0.20369302 -0.041580472 0.0030469864
-0.15138593 -0.45144075 -0.06327941 0.09107344 0.0289181 -0.27729478 -0.10944804 -0.06662005
-0.021939874 0.037252437 -0.074815236 -0.33814916 -0.39816794 -0.43499616 -0.2274733 -0.05245036
0.024480755 -0.3243984 -0.3162012 -0.06942866 0.018034033 0.16272435 0.08919261 0.040805303
0.32991123 0.07153683 0.2604937 0.037026234 0.28712973 0.19873193 -0.051921576 0.09619859
0.20508471 0.0205769 -0.10531998 -0.13687697 -0.24516681 -0.21989696 -0.3194423 0.16210644
0.08329322 0.09008548 0.16941074 -0.051519107 -0.011197106 0.35868007 0.39789432 0.13046104
0.15217735 0.21677278 -0.14756525 0.004634477 0.24457723 0.29590645 -0.25731948 -0.10042197
-0.24945742 -0.21194634 -0.043718424 0.32982695 0.15113904 0.29888654 0.18013734 0.34091258
-0.041488074 0.106140226 -0.07125107 0.005149522 -0.0751827 -0.13615425 -0.14669171 -0.2091989
-0.23971751 -0.26163658 -0.4616909 -0.48891363 -0.41487443 -0.34983343 -0.4487394 -0.38679945
-0.18182419 -0.4395837 -0.17914556 -0.37331086 0.032949686 0.062890366 -0.09595108 -0.3104398
-0.44628623 -0.07117908 0.31673294 0.17132983 -0.061062712 -0.030790599 0.20028807 0.32591742
0.42478365 0.22949532 0.37042153 -0.15217339 -0.09620007 0.17194206 0.30047196 0.20895727
-0.12853648 -0.16596434 -0.30934268 -0.09256701 0.07461598 -0.33206823 -0.17610183 -0.15895233
0.019234389 0.052955188 -0.012012172 -0.20337096 -0.073847115 0.21996035 -0.040905736 -0.07805448
-0.011644124 0.009434474 -0.021827165 0.11288173 -0.22702144 0.051665045 0.0775855 -0.012641571
0.2631893 -0.16942872 -0.18817009 -0.10719264 -0.05857395 -0.017440205

conv1.bias f4 [6]
00000000: dbf4 d43d 8d29 3a3e dbb9 ae3d 5bf7 95be
00000010: 92b7 863e e099 983e
0.10398265 0.18179913 0.08531543 -0.2929028 0.26311928 0.29804897

conv2.weight f4 [16, 6, 5, 5]
00000000: 9cb1 8ebe 5b13 89bd f46a 703e 222b 2c3f
00000010: 587f 10bf a70e 7f3e 8898 e0bd f195 ac3e
00000020: 1fd6 273e be76 eb3e 21cc 87be 5085 69be
00000030: b55f a73e 39bb 1e3f 1d57 f53d e73b e4be
00000040: c10c 19be d4d7 e4be 8825 093f b7d2 6ebe
00000050: f398 21bd d2fc 3e3e 50d6 7e3e 32ad 9ebe
00000060: 8e25 333e 4fc1 24be da0a bcbe f3af fa3d
00000070: eacb 62bd d20e 893e 126f 10be dbd9 a1be
00000080: cecc 8fbe e257 bf3e f23c f33e a66a 003f
00000090: 1b3e 983e 1b1f acbe 7288 a03e b193 c4bd
000000a0: b7f9 0abf 5d39 8abf e8af 323f ee21 e53e
000000b0: ed4b f63c faed eabd 3237 1f3f be92 7dbe
000000c0: 21f9 b43c 76c4 5dbf ed34 ad3e 4a01 063d
000000d0: 02ef f33d d1a6 0a3d ad69 e83d d198 da3e
000000e0: 7613 ecbb af76 af3e 39de 113e 1197 363f
000000f0: 4dba b33c 662f cb3d cd15 d5be 33cd a13e
00000100: 105c 343c d9ac ffbd e19b 26bf c6e2 f13d
00000110: 011d 8e3d f63a 103f d788 f43e cedd cf3e
00000120: 7046 83bd 3833 71be 8c9a 383e a442 253f
00000130: 4218 51bf aaa1 5abd 6840 8cbe 0842 27bf
00000140: f630 4f3e 1a59 333f 1a1f 5c3e be3f 4a3e
00000150: f3aa 5cbf 99f1 da3e 543f fc3d cf7b aa3f
00000160: f5c0 803f 7cea 523e 603a 1e3f 1bf4 72be
00000170: 364a fa3d 0968 b9be dfd7 c5be 71b1 1ebc
00000180: b23a c23d 8a18 09be 39a1 01bf 7e4f af3e
00000190: 613c fbbe 4933 ca3d 63a1 af3d 569e 313e
000001a0: 7a9a 26bf 01b9 373e 1547 3dbd 9d67 00be
000001b0: ad2c bf3e 8858 973d 265e e7be 9d6f 923f
000001c0: 68b5 b53d 383e 623c 47e5 60be 14dc f6bd
000001d0: 1afa a23e 3a0c 393e 4202 9fbe b5b3 f1be
000001e0: fd99 333f 2a11 5ebd 2faa d9be 85ac 03be
000001f0: 69e8 8b3e c9d8 c6be d81e 0b3d 8a56 bbbe
00000200: 14b3 ee3d 3607 84be 7a01 7cbe 1c33 c33e
00000210: c389 163f d0fa 2dbe 68ea 20be 2243 a33f
00000220: e097 c4be e2ef 03bf 3823 5dbf e8ce d73d
00000230: c72f a2bd 186e 11be dce7 143e d19e 29bf
00000240: 0631 24bf 5761 9cbe 452a a23e 52a2 4a3f
00000250: 4866 7bbe 37e3 adbe 1428 63be 07da 46be
00000260: 0584 fa3d 6648 4b3f b8ac f2be 507f 253e
00000270: 4261 44be d6df 253e 5845 48bd d260 bb3e
00000280: 21ab a3be 5a15 c9be cd00 713e ed8a 9c3e
00000290: 4b2d b3bd 38c3 b6be c039 86bd 3d4f f5be
000002a0: 9671 093f 1857 99be dded a7bd a75b 0b3e
000002b0: b083 0d3e a3bd cabe 727c 113e 0ac4 4dbe
000002c0: c426 1abf 5fd8 f1bd e86a 91be 37de 0c3e
000002d0: 717d 49be f729 81be 45be f2be ee8f 7c3e
000002e0: 5992 f43e fc09 3c3f 9e19 743e 909e cbbe
000002f0: 0a75 763e 3a81 babd 28a2 10bf a366 9abf
00000300: 1e06 033f 4502 843e 14a2 11be 1a51 7fbe
00000310: 34a6 0d3f c887 cfbe bd52 2bbe 369a 5fbf
00000320: 50ef c03e 94db 21be 5729 8ebb 4aad 32be
00000330: 3f17 1e3b 2e87 dc3e eec4 83be 2aa8 053e
00000340: c317 b1bd a5d9 043f 3c05 0f3e bd04 1e3d
00000350: b615 c9be 82f1 d03e a39f cbbc 4c36 16be
00000360: 5ebf 2cbf 0311 2c3d 426a 50bd 982c e73e
00000370: a464 803e 3492 883e 3916 31be 7c07 b6be
00000380: d507 b63d 888e 5d3f 4fc1 1fbf 412f 403e
00000390: 919b fa3b ee7c 19bf 3ae4 8e3e f493 563f
000003a0: 05c1 d03e eb5b cc3e 86b0 94bf adc0 3a3e
000003b0: c7a6 d5bc 9065 a43f 4639 493f 0d3e 68be
000003c0: 9ecf 2e3f 8c66 453e 9f6f f23e a825 aabe
000003d0: 6583 e2be 37ea b43e c809 003f 59a9 ed3d
000003e0: f553 c0be 5ec0 af3e 7c61 09bf 7ab0 c93d
000003f0: 13a1 ef3c f8d5 c4bb 501e 21bf 4ce6 4e3e
-0.2786988 -0.06693145 0.234783 0.67253315 -0.5644431 0.24907933 -0.10966593 0.33708146
0.16390274 0.4598903 -0.26522925 -0.22804761 0.32690206 0.6200443 0.11979506 -0.44576952
-0.14946271 -0.44695914 0.53572893 -0.23322569 -0.039452504 0.18651131 0.24886441 -0.30991513
0.17494795 -0.16089366 -0.3672703 0.12240591 -0.05537025 0.2676912 -0.1410487 -0.31611523
-0.2808594 0.37371737 0.47507435 0.5016273 0.29734883 -0.33617482 0.313541 -0.095984824
-0.54287285 -1.0798756 0.6979966 0.4475245 0.030065501 -0.11471172 0.62193596 -0.24763009
0.02209145 -0.866279 0.33829442 0.032716073 0.119108215 0.033850495 0.11348281 0.42694715
-0.0072044684 0.34270236 0.14244927 0.7132426 0.021939421 0.0992115 -0.41618195 0.31601867
0.011008278 -0.1248414 -0.650816 0.11810832 0.06939126 0.5633997 0.4776065 0.4059891
-0.06409919 -0.23554695 0.18027705 0.6455481 -0.8167764 -0.05337683 -0.27392888 -0.6533513
0.20233521 0.70057833 0.2149624 0.19750878 -0.8619835 0.4276245 0.123167664 1.3319033
1.0058886 0.20597261 0.61807823 -0.23725931 0.12221186 -0.36212185 -0.3864126 -0.00968586
0.094838515 -0.13388267 -0.5063663 0.34240335 -0.49069503 0.09873063 0.08575704 0.17345557
-0.6507946 0.17941667 -0.046210367 -0.12539525 0.37338772 0.07389933 -0.45189017 1.1440312
0.08872491 0.013808779 -0.21962462 -0.12053695 0.31831437 0.1807107 -0.3105641 -0.47207418
0.7015684 -0.054215588 -0.42512652 -0.1285878 0.27325752 -0.3883727 0.03396496 -0.36589462
0.1165525 -0.25786752 -0.24609938 0.3812493 0.5880396 -0.16990209 -0.15714419 1.2754862
-0.3839712 -0.5153791 -0.86381865 0.10537511 -0.07919269 -0.14202154 0.14541572 -0.6625796
-0.64137304 -0.30543014 0.31672874 0.7915393 -0.24550736 -0.33962414 -0.22183257 -0.19419108
0.12232212 0.79407346 -0.473974 0.16161847 -0.19177726 0.16198668 -0.048894256 0.36597306
-0.31966498 -0.39274102 0.23535462 0.30574742 -0.08748873 -0.35695815 -0.06553984 -0.47912017
0.53688943 -0.2994926 -0.08199666 0.13609181 0.13819766 -0.39597806 0.14207628 -0.20094314
-0.602154 -0.11808848 -0.28401875 0.13756643 -0.19676758 -0.2522733 -0.4741079 0.2466428
0.47767904 0.73452735 0.23837897 -0.3976941 0.24068084 -0.09106679 -0.5649743 -1.2062572
0.5118121 0.25782982 -0.14221984 -0.24933282 0.5533173 -0.4053328 -0.16730781 -0.8734468
0.3768258 -0.15806419 -0.004338424 -0.17448917 0.0024122742 0.43071884 -0.25736183 0.13052431
-0.0864711 0.518946 0.1396684 0.038578738 -0.39274377 0.40809256 -0.024856394 -0.1466915
-0.67479503 0.04200841 -0.050882585 0.4515121 0.25076783 0.26674044 -0.17293634 -0.35552585
0.088882126 0.8654561 -0.6240434 0.18768026 0.0076479395 -0.5995625 0.27908498 0.8381951
0.40772262 0.39913878 -1.1616371 0.18237562 -0.026080502 1.2843494 0.7860302 -0.2267992
0.6828555 0.192774 0.47350785 -0.33231854 -0.4424087 0.35334942 0.50014925 0.11604566
-0.37564054 0.34326452 -0.53664374 0.09848113 0.02925161 -0.0060069524 -0.6293688 0.20205039

conv2.bias f4 [16]
00000000: 911c e53c 6ec7 343d 8c57 ac3b 9fe0 abbd
00000010: 5eb4 313d 7c7b 523d 9b6c 203d bbe5 00bd
00000020: 25a5 a63c 42eb 5b3c 64e9 b4bb baab 51bc
00000030: a665 c2bc f274 6b3d 540d 133c ff25 003d
0.027967723 0.044135503 0.00525946 -0.083924524 0.043384902 0.051387295 0.039166074 -0.031469088
0.020342419 0.013422789 -0.0055209864 -0.01279729 -0.02373011 0.057484575 0.008975346 0.031286236

fc1.weight f4 [120, 256]
00000000: 1a28 46bd b306 003d 0d1b f63c 9d66 f43c
00000010: 308e 8e3d 4627 7a3d 3a0d c2bd b464 69bd
00000020: 5260 d6bc 8a3c 90bd c212 9f3c 3cfa 273d
00000030: 4e20 13bd 9f66 6c3c 475c 0e3d 20db 9e3c
00000040: eff1 48bd 19af 663c 8a8d a0bc 8275 64bd
00000050: c67a 5c3d 49ca e8bc 658d 593c 8804 fcbb
00000060: 0d14 b43d ec15 8e3b 3308 173d 76ce 203d
00000070: 4bc9 1dbc f1cd 75bd bf78 60bd 5a61 353d
00000080: c460 283d 4a6f 0ebd b417 78bc 73a0 303d
00000090: 4dd8 f03c 979c 183c 60af e93b 83e7 8f3d
000000a0: 348a cdbc 15cf 8e3d e9c6 923c e8e4 19bd
000000b0: ae43 b4bc 0ff4 8abd 32b2 35bd 328d 87bd
000000c0: d799 523d f6b0 00bd f945 c13d 7724 d93c
000000d0: c500 bdba 0e37 3cbd 92c3 d7bb b24e 33bc
000000e0: 7944 413c b8df 183d c04c 2abb 9418 e8b8
000000f0: 5204 c9bc 4f45 7c3c 6f93 563d 7075 c3bb
00000100: 2a5a 10bc b73d 993d d4ef a33d 3d0e c63c
00000110: 676a bf3c f75f 86ba 1b22 d63c 3534 72bd
00000120: 8912 21bd ba7f bbbc a52b 02bd 65dc c63c
00000130: 6eeb 5ebd f061 d4bc f464 2abb 98a0 ed3c
00000140: df2e 32bd 3851 5b3b 22ae 113c d45c 63bd
00000150: 448e f13c 5fc2 133d 0584 1cbd 9283 11bd
00000160: e026 3dbd e2bd 2bbd 9489 acbc 1888 973d
00000170: b3af 50bd e55f ac3c 7b9e fe3c 4175 82bb
00000180: 8605 8e3d 7c93 0d3c 9a3f 163d 57e6 313d
00000190: 0c0c c6bc b8df dbbc 0545 923d e484 d0bc
000001a0: 697d 413d c4fc 36bd 20b1 ea3b 3b4c 863b
000001b0: ebe2 02bc 0c88 bf3c f732 cebc d9d3 82bc
000001c0: 92da 573d fca0 413d 8b7e bd3d d94a 2dbd
000001d0: f3ee 373d 784c 8d3c a4ad 45bc c496 6f3d
000001e0: 2617 9cbd 28b6 3ebc 42a6 193b f68c 9d3c
000001f0: fb71 b93c 1819 24bd 4657 473c d3ce 0bbd
00000200: 3a76 adbc d170 293d 4db5 53bc ae8d 073d
00000210: 2724 3e3d 495b e5bc 44f0 253c 41b9 aabb
00000220: f179 393d 3b27 7d3d 1de6 84bd 9076 fbbc
00000230: a317 25bd 3657 87bb b82a 70bd 8567 5fbd
00000240: 6ce9 2e3d 6ccf 53bd d490 793d 0710 97bd
00000250: fcd0 3a3d f771 6dbb 135f 8dbb a12a 4c3d
00000260: f638 523d 86d8 5dbd a563 853c 9bde 9c3d
00000270: 8307 cc3b 6755 dabb 3bd0 39bd 1103 5b3d
00000280: cbbb 5dbd 4447 4a3d e362 873d a78c 993d
00000290: 9ec2 ee3c 7c6e 983d c39e 053d aa19 8dbd
000002a0: f928 bf3c db04 f63c f426 a336 2030 dbbc
000002b0: 556c 5bbd 946c bb3b f45f 6d3d a920 88bc
000002c0: 1d51 bf3d b47d b33b e2ec 823c e69c 053b
000002d0: 4116 18bd ec30 2bbb e9f1 4f3b e1c1 af3c
000002e0: 0f7b 2fbd 9793 6cbb 886d 6d3b 6218 023c
000002f0: 312f 203d 24cc 0b3d d1fe 9ebc 5599 47bd
00000300: 90b3 433b fb17 f7bc e808 b43d ea28 82bc
00000310: d0dc fdba cb6c 99bd e368 d33c af25 d1bb
00000320: ba0d 47bc 51cb 29bd 35bc 103d 219c 92bd
00000330: 373e d0bb b5b1 69bd 97a8 3c3c e9fe 87bc
00000340: ecb4 b33c 766c 9a3d bfce 9e3d f6e5 32bd
00000350: 9e9c a63d 6fa4 adbc 33b9 573c 32e4 4cbc
00000360: b1be 493c 79dc 03bc 3646 fa3c 0659 483d
00000370: 9f10 343d 5ac0 09bd 8378 9d3c 7c9c 63bd
00000380: cd17 703d 3e74 d33d 7720 9e3a 4809 a5bc
00000390: 6532 913d 8f7c b33c 2179 74bd 9996 643d
000003a0: f35a d0bc a0a4 b53b f1a1 eabc 2693 e7bc
000003b0: abb0 d8bd 7d9c 3bbd c9c6 b0bc 9732 3cbd
000003c0: 2d07 eabc f4cc d03d cba2 e53c 7326 853d
000003d0: fd58 83bc 7659 443c 06c8 613d 1975 8d3d
000003e0: 4066 4c3d 4cf8 dbbb 3431 643d 38ce a43c
000003f0: c23b e13c bbc3 2abd 47e5 7a3c c3f1 323d
-0.048378088 0.03125639 0.030042196 0.029834086 0.06960714 0.06107261 -0.09475179 -0.056980804
-0.026168976 -0.07042797 0.019418124 0.041010126 -0.03591948 0.014428764 0.03475597 0.019391596
-0.04905885 0.0140798325 -0.019598741 -0.055776127 0.053828023 -0.02841677 0.01327834 -0.00769097
0.08792887 0.0043361094 0.036873054 0.039259396 -0.0096305115 -0.060010854 -0.054802652 0.044282295
0.041107908 -0.034774102 -0.01514237 0.043121766 0.029400015 0.009314678 0.007131502 0.07026579
-0.025090314 0.069730915 0.017917113 -0.037571818 -0.022004928 -0.06784832 -0.044359393 -0.06618728
0.051416244 -0.031418763 0.09437174 0.026506646 -0.0014419785 -0.04595094 -0.006584593 -0.010944055
0.01179611 0.03732273 -0.0025985688 -0.000110672 -0.024538193 0.015397384 0.052386697 -0.0059649274
-0.008810559 0.07482474 0.08004728 0.024176711 0.023366166 -0.0010251988 0.02613931 -0.05913182
-0.039324317 -0.022888053 -0.031779904 0.024275014 -0.054423742 -0.025925606 -0.0026000114 0.029007241
-0.04350173 0.0033465158 0.008891614 -0.05550845 0.029486783 0.03607404 -0.03821184 -0.035525866
-0.046179652 -0.041929133 -0.021061696 0.07399005 -0.05094881 0.02104182 0.031081429 -0.003981263
0.06934647 0.00864112 0.03668175 0.04343256 -0.024175666 -0.026840076 0.07142071 -0.025453992
0.04723874 -0.04467465 0.007162228 0.004098443 -0.007988672 0.023380302 -0.025170786 -0.015970157
0.05269868 0.047272667 0.09252652 -0.04230771 0.044905614 0.017248377 -0.012065325 0.05849339
-0.07621603 -0.011640109 0.0023445045 0.019232254 0.022637358 -0.040062994 0.012166804 -0.03413279
-0.021174539 0.041367356 -0.012921643 0.0330941 0.046421196 -0.02799763 0.010128085 -0.0052100723
0.045282308 0.06180499 -0.06489203 -0.030696183 -0.040305745 -0.0041302694 -0.05863449 -0.054542083
0.042703077 -0.051711485 0.060929134 -0.07376104 0.04560946 -0.0036231258 -0.0043143122 0.04984534
0.051323853 -0.05416157 0.016282866 0.07659646 0.0062264814 -0.006663013 -0.0453646 0.05346972
-0.05413417 0.04938437 0.06610658 0.074975304 0.029145535 0.07442948 0.03262211 -0.06889661
0.023334967 0.030031612 4.8623133e-06 -0.026756346 -0.05357011 0.0057197306 0.057952836 -0.016617136
0.09341643 0.0054776315 0.015982095 0.0020387708 -0.037130598 -0.002612169 0.0031729883 0.021454753
-0.042841967 -0.0036098713 0.0036228616 0.007940384 0.039107505 0.03413023 -0.019408615 -0.048730213
0.0029861666 -0.030162802 0.08790761 -0.01588865 -0.0019368175 -0.07491454 0.02580685 -0.006382666
-0.012149269 -0.041453663 0.03533574 -0.071586855 -0.006355073 -0.05705424 0.011514804 -0.016601043
0.021936856 0.075402185 0.077542774 -0.04367634 0.08135341 -0.021196572 0.0131667135 -0.012505578
0.012313531 -0.00804817 0.030551057 0.048913024 0.043961164 -0.033630706 0.019222504 -0.055569157
0.05861645 0.10324906 0.0012064119 -0.020146027 0.0708969 0.02190998 -0.05968583 0.055807684
-0.025433993 0.0055433065 -0.028641673 -0.028268408 -0.10580572 -0.045803536 -0.021579163 -0.045946684
-0.028567875 0.10195342 0.028031727 0.06501474 -0.016033644 0.01198422 0.055122398 0.069071
0.0499022 -0.006712949 0.055710986 0.020117864 0.027494315 -0.04169057 0.015313453 0.043687593

fc1.bias f4 [120]
00000000: 498a 30bc 366c 143c 1d5d 5a3d 468a c33a
00000010: a7de b43c 6b8e 023a 85d3 463c 2326 173c
00000020: e420 efbc 7179 4cbd 13d0 c1bc d1a5 933c
00000030: 9df7 773d 65a8 093c cf61 0cbc 2531 6ebd
00000040: e93e 313d 5557 51bc 635b 18bd 6176 53bd
00000050: 87c4 033d 935c 573d 2c8c 2a3d b0c1 5f3d
00000060: 5009 b53c eee3 46bd 3a36 dbbc ff46 2cbd
00000070: 04c7 18bd 8fd9 34bd 22e9 583b fe8f 543c
00000080: 3942 76bc d0ae 6f3d 0dcb 6e3c a03c 30bd
00000090: 7154 58bd 59a5 a03c b710 003d 29b7 133d
000000a0: 6c9e 313d 5c59 b83c 2674 f6bc e7aa 883d
000000b0: 61c9 eebc c632 a0bb fe20 cc3b 1104 4d3d
000000c0: b489 293d a401 da3b f3e5 373d e643 9dbc
000000d0: d952 3d3d a376 b73c fd1d 79bd 0a77 1ebd
000000e0: 0a8c 563d 6b9d 363d 4f00 493b 7e87 e63c
000000f0: fddd 1ebd 946b c0bc ed4a 2f3c 72db c13c
00000100: 07ec 13bd d67d cd3b c041 d33b 1c05 70bc
00000110: 7783 babb b71d 853d 482f 45bd a958 6f3d
00000120: 6857 1cbc d6c7 6fbc dabb f8bc 76e3 493d
00000130: 9906 1ebd 7e01 31bb cbd7 2d3d d7c9 5ebd
00000140: 503c a9bc ecf1 a03a 8313 60bd 49a6 363c
00000150: 8a16 0cbc de55 4dbd 56b2 e63a b365 093d
00000160: b594 493d 2e41 923c 5c00 a0bb 11e1 043d
00000170: 73e8 1e3d 4c32 463d c6ea 0abc 22a3 34bc
00000180: 5d59 0f3d a229 843d 8c96 03bd 564e 29bd
00000190: 0b26 aabc 8e3c d7bc d6a2 4cbd 06e5 303d
000001a0: d5ee 5f3d 0619 203d 9044 48bd 3719 a0bc
000001b0: e6e3 61bd c7b3 16bd 697c 833d 5950 1bbb
000001c0: 5e8f 553d 507c cabc 0bab 523d 4d3d dcba
000001d0: ab4d 7e3c ee57 15bd 174a 633c fa51 213d
-0.010775157 0.009059003 0.053311456 0.0014918528 0.022078825 0.00049803284 0.012135391 0.009225401
-0.029190488 -0.049920503 -0.023658788 0.018023403 0.060538877 0.008401965 -0.008568241 -0.058152337
0.043272886 -0.012777169 -0.03719653 -0.051626567 0.032169845 0.05257852 0.041637585 0.054628074
0.022099167 -0.048557214 -0.026759256 -0.042059895 -0.03729917 -0.044152793 0.0033097942 0.012973784
-0.015030437 0.058516324 0.014574778 -0.043026567 -0.052814905 0.019610094 0.03126594 0.036063347
0.043363973 0.022503547 -0.03008468 0.06673222 -0.02914876 -0.004888865 0.006229519 0.050052706
0.04139109 0.0066530276 0.04489703 -0.019197416 0.046221588 0.022395438 -0.060819615 -0.038687743
0.052379645 0.04458372 0.003067035 0.02814078 -0.038785923 -0.023488797 0.010699016 0.02366421
-0.036113765 0.0062711043 0.006447047 -0.014649656 -0.0056919414 0.06499808 -0.048140794 0.058434162
-0.009542324 -0.014635047 -0.030363012 0.04928919 -0.03858051 -0.0027008946 0.042442124 -0.05439171
-0.020658642 0.001227913 -0.054706108 0.011148044 -0.008550296 -0.050130717 0.0017600756 0.033544254
0.049214084 0.017853346 -0.0048828553 0.032441203 0.0387959 0.04838781 -0.008478826 -0.011025222
0.034997333 0.06453253 -0.032125995 -0.041334473 -0.020770093 -0.026273992 -0.04995998 0.043187164
0.054671127 0.039086364 -0.04889351 -0.019543273 -0.05514898 -0.036792543 0.06420214 -0.0023699014
0.05213868 -0.02471748 0.05143265 -0.0016802937 0.015521447 -0.03646081 0.013872645 0.03938482

fc2.weight f4 [84, 120]
00000000: 654c 82bd fdb9 bc3c 73b5 59bc 0043 98bc
00000010: 6480 f73b ab1b bc3c 504e 583d f094 a4bd
00000020: 7a1b 2ebd 2020 6d3d 5696 f43c 75e2 65bd
00000030: 6907 f3bc 6fa3 47bd 565d 743d faac c7bd
00000040: e86b 65bd 5095 943d 9c76 443d e0d6 533d
00000050: c76d 59bd e20b adbb 0452 403c 310d a9bd
00000060: 1e39 96bc 3f17 bb3d a630 96bd 4079 49bd
00000070: 1bc1 2a3d d42d 803c a37c 56bd 73d4 0dbd
00000080: 3d07 aa3d 0e1e e03c c55f a73b c2e5 b53c
00000090: 5885 023d d133 a03c 83aa 103d dc29 c0bd
000000a0: 5751 973c 7cff 96bd 1601 0b3d 828e 26bb
000000b0: bf9f 973d d1ae 88bd 29ae b73d 9cb5 63bd
000000c0: d678 953c a988 8abd f0dd 99bd 5e4b 98bb
000000d0: d193 10bd 84a7 1a3d 4315 9bbd 3fd3 163d
000000e0: d550 c63d 6094 b63d ada8 553d a16f 1f3b
000000f0: 515c 99bd f9c2 b53d 287a 203b 36a7 a3bd
00000100: 476d 533d a8bc 7c3d 6cc0 c73d 0fce a4bd
00000110: 0fc4 b53d dbed 763d e987 a6bd 4d5d 013d
00000120: c7f7 b83c 25c9 6d3d 4094 48bd 165b 07bd
00000130: 1b9c a8bd 949f 943d 8f6f ec3b 93cf 843d
00000140: d2c8 5eba 7f92 58bd e37b bc3d b25d 8b3d
00000150: 3ea6 623d 7644 3d3d 1524 5dbd 2b1f 033d
00000160: 54e9 b63d bdb9 84bd c15f 303d 4aa7 993d
00000170: 3d53 0dbd 3b9b 3bbd 30b2 043d effa 98bd
00000180: 8ffb 7a3d d418 d63c 8998 b63d a786 15bd
00000190: 2b01 803c ec55 a43d ce5c f23a 9488 be3c
000001a0: e270 e0bc dc4f a3bd c6a9 a93d 98e9 9abd
000001b0: 935a f23c 869d 553d 8f4e 19bd f4c5 25bd
000001c0: 319b 75bc f114 343c 0714 40bc e377 b63c
000001d0: 03a7 ef3c bb83 2dbd 666d 2fbd 8380 b4bd
000001e0: edf6 bf3c 84d5 7d3d 9405 40bd 1897 e5bc
000001f0: 7e3e 593d 48ae b8bd 99fa 88bd b7be 8f3d
00000200: 563b 33bd 79ea db3b 05b2 0c3d a2b3 22bc
00000210: b671 92bd 26cd a63d 62d4 7e3d c438 b8bd
00000220: bc05 58bd 7ab1 4d3b d6d6 3cbc b610 6a3d
00000230: 8256 87bd 2a4f fdbc 674c ecbd ed10 813d
00000240: 60c7 39bd ce19 afbd 351c 35bd b06b 933d
00000250: 3c5c 653c 45f1 05bc 140a ad3d 60a8 cbbc
00000260: 9aa1 c4ba 7421 a0bc e5fc 39bc fb65 b53d
00000270: 9052 99bd 5669 ab3c f40d 85bd 4909 de3c
00000280: 0467 57bd 5672 4a3c 7f5d cf3c 0253 47bd
00000290: 317d 72bc 0d38 b33d ba61 87bd 6335 ea3c
000002a0: 5664 c23d 3fbd 74bc f23c fc3d a4ad 213d
000002b0: ed57 523d 1992 21bd 4f35 cbbd a2fe 923d
000002c0: 2592 5f3c 3e40 8c3d 9bfd dabb 86b8 833c
000002d0: 7bd3 3fbc c902 eb3c 2402 e83c 8925 29bd
000002e0: bc1f 973d 0a61 bebd 472e c03c 71a0 0b3c
000002f0: 68a9 e8bb c08d adbd a29e d53d daa8 30bd
00000300: 1bf8 10bd 8b40 b1bb eaa3 823c 3662 293d
00000310: 64ac cd3d b23c 0fbd f1e9 5bba e86d 88bd
00000320: 48fe 663d 388d 39bd a956 3bbd 0740 aebd
00000330: debd 15bd d003 59bd 4b3e 303b 9fd3 cfbc
00000340: b4f1 1b3c cfde 9d3d 7393 4abd f190 363c
00000350: b2bc da3d c44f 2dbd 1345 85ba acd2 893d
00000360: fe5e cbbd 74af a23d 6174 163d d43c 563d
00000370: 044d 7d3a 04e0 a03d c692 7fbd c4eb 703d
00000380: 7c3a 663d c509 4e3d fa84 36bd c5b5 ca3c
00000390: 5339 40b9 7217 b8bd 83e8 a3bd 186b 03bd
000003a0: 6e62 76bc d56c 003d ec1a 51bd b1a7 7c3c
000003b0: 2918 71bc 5f9e bdbc f844 cd3c ec43 373c
000003c0: 7f3e bf3d 1aef 96bd e34c b33d 0086 59bd
000003d0: 3dbe 57bd 7a4c a93d 3f30 033c caa8 cabb
000003e0: 5190 2e3d f94d e73c 1f93 723d a2a8 093d
000003f0: 1552 0c3c 2540 acbd ad41 05bd 420d c9bd
-0.06362227 0.023037905 -0.01328789 -0.018586636 0.007553147 0.022962412 0.05280906 -0.0803622
-0.042506672 0.057891965 0.029856842 -0.05612417 -0.02966662 -0.048739847 0.059659325 -0.097497895
-0.05601111 0.072550416 0.047964677 0.051718593 -0.053083207 -0.0052809576 0.011738304 -0.08254469
-0.018337782 0.09135293 -0.07333498 -0.0491879 0.041688066 0.015646853 -0.052364957 -0.034626435
0.08302162 0.027358081 0.005107852 0.022204284 0.031865448 0.019555958 0.035318863 -0.09382984
0.018471403 -0.073729485 0.033936583 -0.002541453 0.07403516 -0.066739686 0.08968765 -0.055593118
0.018246096 -0.06764347 -0.07513034 -0.0046476563 -0.03529722 0.03775741 -0.07572415 0.036822554
0.09683386 0.08915019 0.052162815 0.002432801 -0.07488311 0.08875079 0.0024486873 -0.07990877
0.051617887 0.061703354 0.097534984 -0.08047115 0.08875286 0.06028543 -0.081313916 0.03158312
0.022579087 0.058053154 -0.048969507 -0.03304585 -0.082329 0.072569996 0.0072154473 0.06484904
-0.00084985525 -0.052874085 0.09203317 0.0680498 0.055334322 0.046207868 -0.05398949 0.032012146
0.089312226 -0.06480739 0.043060068 0.07502611 -0.03450321 -0.045802336 0.032396495 -0.07469737
0.06127506 0.026134886 0.089158125 -0.036505368 0.015625557 0.08024201 0.0018490793 0.023258485
-0.027397577 -0.07974216 0.08284335 -0.07564086 0.029584205 0.05215218 -0.037428435 -0.040471986
-0.014990614 0.010991321 -0.011723525 0.022273963 0.029254442 -0.042361956 -0.04282894 -0.08813574
0.023433173 0.061971202 -0.04688032 -0.028026149 0.053038113 -0.090176165 -0.06688423 0.07018798
-0.04375776 0.006711301 0.03434946 -0.009930523 -0.07150595 0.08144598 0.062214263 -0.08995202
-0.052739844 0.0031386302 -0.01152583 0.057144843 -0.06608297 -0.030921537 -0.1153801 0.063020565
-0.045356154 -0.08549844 -0.044216353 0.07198274 0.013999041 -0.008175199 0.08449188 -0.02486056
-0.0015001774 -0.019547202 -0.011351799 0.08857342 -0.07486451 0.020924252 -0.06496802 0.027104037
-0.052588478 0.012356361 0.025313137 -0.048663147 -0.014800356 0.08750925 -0.06610437 0.02858991
0.09491794 -0.014937698 0.12316312 0.039472237 0.051353384 -0.03944597 -0.09922277 0.071774736
0.013645683 0.06848191 -0.006683064 0.016079199 -0.011708136 0.028687852 0.028321333 -0.041295562
0.073791 -0.092958525 0.023459567 0.008522139 -0.007100273 -0.08474302 0.104306474 -0.04312978
-0.03539286 -0.0054093054 0.015947301 0.041353427 0.100426465 -0.034969993 -0.0008389047 -0.06661588
0.056394845 -0.045300692 -0.045736942 -0.08508306 -0.036558025 -0.05298215 0.0026892598 -0.025369463
0.009518076 0.07708513 -0.049457025 0.011142955 0.10680522 -0.0423124 -0.001016768 0.067296356
-0.09930228 0.07943621 0.03673208 0.052304104 0.00096626603 0.078552276 -0.062395833 0.058818594
0.05620812 0.050302286 -0.04456041 0.024744878 -0.00018331902 -0.08988847 -0.080033325 -0.032084554
-0.015038116 0.03135379 -0.051051065 0.01542084 -0.014715233 -0.023146806 0.0250573 0.011185627
0.09338092 -0.07369824 0.08754899 -0.053106308 -0.05267166 0.0826654 0.008007108 -0.006184672
0.0426181 0.028235422 0.059222337 0.033608086 0.008564492 -0.08410672 -0.032533336 -0.09816982

fc2.bias f4 [84]
00000000: f3a5 fd3b c5d4 d83c 0589 a6ba dc5f b9bd
00000010: bdf5 01bd ec86 8bbd 1443 923d c013 4cbb
00000020: a6f6 393d 7436 cb3c cb9b a4bd faf6 893d
00000030: 885d a6bd 1b55 b2bc 065a 993d ba49 ef3c
00000040: 05f6 bf3a 5733 82bd 7b5e c83c 5b9a 2e3d
00000050: fcc0 90bd 9c74 243c 3015 ed3c c2ed 233d
00000060: 4987 60bd e499 ad3d 504d 7abd 8ea9 6d3c
00000070: 96ed 363c f468 b9bd 91b3 eebc 904a 9bbd
00000080: 3d89 7e3d 6cf2 863d 5642 b13d a797 b4bd
00000090: 872b f33c ff8c d13d 2b48 b13d 6958 af3d
000000a0: bc1b 69bd de23 b63d eccf ab3d ecc9 423d
000000b0: 0ec5 dcba e487 1d3d 57d6 abbd f16a 44bd
000000c0: 0ad7 8ebd 1c6f e03d e6d1 81bc 47c4 a43d
000000d0: 000c 8c3d d02e 893d 1654 f93c ead8 a4bd
000000e0: 34eb 69bd 32f2 2abc ddfd 89bd 35ba 19bd
000000f0: 3e40 f33c 2742 8d3d 296f d8bc 90b5 f13a
00000100: c403 753d 50ba abbd 802f 19bd d8b9 fc3c
00000110: 32e6 703b 77b8 73bd 1a58 7c3d b55a 953d
00000120: 2c92 98bd 4e2a 19bc 65ec f13c 03ad 973c
00000130: bffe 963d 5b0e 5dbd d01f 903c 5f28 6f3d
00000140: d546 b23c ea68 903c 255e 42bd 4df1 09bd
0.00774073 0.026468644 -0.001270563 -0.09051487 -0.031728495 -0.06812844 0.071417004 -0.0031139702
0.045401238 0.024806239 -0.08037528 0.0673656 -0.081233084 -0.021769097 0.07487874 0.02920996
0.0014645463 -0.063574485 0.024459114 0.042627674 -0.07068059 0.0100375675 0.028940767 0.040021665
-0.054816518 0.08476618 -0.061108887 0.014505757 0.011165043 -0.09053221 -0.029138358 -0.07582581
0.0621426 0.06589207 0.08655231 -0.08817988 0.029683841 0.10231971 0.08656343 0.08561785
-0.056911215 0.0889356 0.08389267 0.04755585 -0.0016843395 0.038459674 -0.083904915 -0.04795355
-0.06974609 0.109586924 -0.015847158 0.080452494 0.06838226 0.06698382 0.030435603 -0.080491856
-0.057109073 -0.01043372 -0.06737874 -0.037531096 0.029693719 0.06897383 -0.026420193 0.0018440951
0.059818044 -0.08385146 -0.037398815 0.030850336 0.00367583 -0.05950209 0.061607458 0.072926916
-0.07449755 -0.009348465 0.029531667 0.018515116 0.07372808 -0.05396877 0.017593294 0.05838811
0.021762291 0.017628152 -0.047453064 -0.033677388

fc3.weight f4 [10, 84]
00000000: cdd3 f43d e043 aebc 5c77 4c3e fa7a 8ebc
00000010: 8fb9 063e 630d 913a f8e6 c1bd 4cfa febd
00000020: 8ecc 303e 2875 e3bc a7cd 29bc 1d5c 8d3d
00000030: 98dd d03d 4d4f 223e 97a1 133d a9c0 e23d
00000040: 4b53 bcbd b04c dc3d 3ce5 3fbe abc6 7cbc
00000050: 394b e7bd 403e ffbd 1969 953d 8350 0a3d
00000060: 5682 093e 2ef2 1a3e 4cc3 2fbe 53b8 b23c
00000070: 0bd3 293d 7b77 8abd c3de 4abd e652 d2bd
00000080: 6760 923d e0db bf3d 7317 43bc e173 a2bc
00000090: 4185 01be c74a 863d c3c5 ff3c ca45 4c3d
000000a0: 12df 013e c577 943c 7e63 6abd d6ca 7ebd
000000b0: 01e8 573e d841 4d3d 5601 65bd 5f61 b6bd
000000c0: b97a 1ebe 81f3 39be f099 8fbc 045c 0bbe
000000d0: d686 c83d 9f3f 8c3d 6a5d 6c3c 104b f8bd
000000e0: 3da8 dd3d 3f9d 373d 6588 34be b760 f1bd
000000f0: 9c53 95bc 2a6b a63c 0bb4 543d 8a77 cfbd
00000100: 08d8 cabd 404b 843d a5c9 783d c5ae 05be
00000110: 958d 31be d361 c13d da5d 3dbd 8165 363e
00000120: d3e0 b73d 90c5 0b3e 77cb 293b d925 473e
00000130: 677f 693d a2f1 c03d 3b78 7c3d 7903 833d
00000140: 39cf aebd 9cb6 c93d 2be5 d1bd 8907 36bb
00000150: 6edc a9bd 4cb6 0abe 8739 863d 692d 23bc
00000160: c868 853b 931a 7c3c 1ded 45bd 19ee 233e
00000170: a308 3e3b e080 19bd b984 533d c1ff 0f3d
00000180: 2de7 9e3d c721 8dbd 24ce 9abd 0be4 5fbd
00000190: 116d 603d 6472 51be 8d9a 4a3d 799f afbd
000001a0: aa47 8bbe 9ddc 023e fb75 0bbd 6ab9 f53d
000001b0: c685 90bd 4f04 0cbe 8fe9 5b3d 6172 103c
000001c0: bfa6 5bbe ce6b d73d c6ac 23bd 9990 473d
000001d0: e4bd fd3d 1f04 fabc 155a df3d 7afc ad3d
000001e0: 0dfe 54bd 7e15 98bd 3097 f33d 38c8 25be
000001f0: c178 13bc ae41 833d 44c2 643e 6b3e be3d
00000200: 9885 e8bb c22a 8f3b 81c9 1a3d 3bdd 813d
00000210: afb9 65be ac06 1c3e a8fa 7f3d f6db c5bc
00000220: 999f af3d 7db2 793e d91b f33d 5c07 833d
00000230: d5fc bc3d d546 19be 1082 b53d 9358 1d3e
00000240: 7dd3 d43d 894e 473d 3d08 ad3d eba1 ebbd
00000250: 4a24 58bd bfdf c3bc ead1 21be 151a 163d
00000260: 6652 c1b9 af49 4c3d 1496 eb3d e9d9 04be
00000270: 5751 f43d 7365 efbd b54a 8c3c 4845 19be
00000280: 51d3 c63d 2820 18bd 667b d8bd 4ce9 25be
00000290: c7cb 523e 2c34 a1bc 4689 d13d 979b d7bd
000002a0: b21b e73d 4876 a43d 8b1c fbbc 7ffe 37bd
000002b0: bb99 a13d e7ba 743c a7ec adbd 72c1 3f3e
000002c0: 655c 7dbd 3fea 3c3d 098f ebbc cee2 bc3d
000002d0: 930e 98bd c129 643d ac2d 37bd 88bf f3bd
000002e0: a787 a43d 9b68 b1bb 7ba1 8c3d 002b 4d3e
000002f0: 0d1e 5a3d f3c8 05bc accb 07be 12d3 ba3c
00000300: 0b6f 10be c3ea 343c d0a0 e6bd d22f 703c
00000310: 624d 883c 82c5 e1bc 2f20 ae3d 3a4a 34be
00000320: b9fc 553c dc30 49bd 3e5f 25bc 2fc3 3bbd
00000330: 4476 823d 5236 13be 27e4 b0bc 9f3a 28bd
00000340: 59a7 53be 4a19 d73d dbd2 2e3e baef 10bb
00000350: efdd 8bbd 339a 34bd ebe5 e93c f8bd 3fbe
00000360: 590b 463d eb8c 133e 96ad a9bd 8f0f 0c3d
00000370: 99f9 513d ab7b 333e bae6 6abe a5b4 a6bb
00000380: a3df 41bd 057d cc3d 0109 28be be6d e1bd
00000390: e47a b63d 4330 883e 757d 8e3b bb50 9abd
000003a0: 3710 fd3c 499d 2cbd 9c6c 4bbe 735e a9bd
000003b0: 85ff b6bc ad5c dfbd 88e2 f1bc c0b4 56bb
000003c0: 3bc8 20be ae52 54bc 34ea ce3c 0419 e9bd
000003d0: fa46 183c 0832 abbd 4365 d6bc bce5 a7bd
000003e0: de20 19be 1c63 cb3d ba82 613d fa03 01be
000003f0: bb1b 443d 2a64 8b3c 4a00 a1bb da2f 48bd
0.1195446 -0.0212726 0.19967407 -0.017392624 0.13156722 0.0011066612 -0.09467882 -0.12450084
0.17265531 -0.027765825 -0.010363973 0.06902335 0.10198516 0.15850563 0.036042776 0.11071903
-0.091955744 0.107568145 -0.1873979 -0.0154282255 -0.112936445 -0.12463045 0.072954364 0.03376819
0.13428625 0.15131447 -0.17164344 0.021816408 0.041461032 -0.0676107 -0.04952885 -0.10269718
0.071472935 0.0936811 -0.011907446 -0.019830646 -0.12648489 0.065572314 0.03122223 0.049871244
0.12682751 0.018123517 -0.05722379 -0.06220516 0.21084596 0.05011162 -0.055909477 -0.08905291
-0.15476502 -0.18159296 -0.017529458 -0.1360932 0.09791343 0.06848072 0.0144265685 -0.12123692
0.108231045 0.044827696 -0.17630155 -0.11786025 -0.018228345 0.020314772 0.051929515 -0.10130222
-0.09904486 0.06459665 0.06073918 -0.1305495 -0.17339166 0.094424866 -0.046232082 0.17812158
0.08978429 0.13649583 0.0025908628 0.19448031 0.057006266 0.09421088 0.0616381 0.06397147
-0.08535618 0.09849283 -0.102487884 -0.0027775487 -0.08293997 -0.13546103 0.06553941 -0.009959557
0.004071329 0.015387195 -0.048321832 0.16008796 0.0028996847 -0.03747642 0.051640246 0.035156015
0.07758937 -0.06891208 -0.075588495 -0.054660838 0.054791514 -0.20453793 0.049463797 -0.08575339
-0.27203113 0.1277947 -0.03404806 0.119982556 -0.07056765 -0.13673519 0.053689536 0.008816333
-0.21450327 0.10518609 -0.03995969 0.048721883 0.123897344 -0.030519543 0.10905854 0.08495422
-0.052000094 -0.07425974 0.11894071 -0.16189659 -0.009000958 0.06409012 0.22339731 0.09289249
-0.0070960037 0.004369111 0.037789825 0.063410245 -0.22434114 0.1523692 0.062494904 -0.024152737
0.08575363 0.24384494 0.11870546 0.06397888 0.092279114 -0.14968427 0.08862698 0.1536582
0.10391901 0.04865888 0.08448837 -0.11505493 -0.052768983 -0.023910401 -0.15802732 0.036645968
-0.0003687322 0.049874958 0.115032345 -0.12973751 0.11929577 -0.11689272 0.017125467 -0.14967835
0.09708274 -0.03714004 -0.105704114 -0.16202277 0.20585547 -0.019678198 0.10231261 -0.10527723
0.11284579 0.08030373 -0.030653259 -0.04492044 0.0789065 0.014937139 -0.084924035 0.18726137
-0.061855692 0.046121832 -0.028754728 0.09222947 -0.07424655 0.055703882 -0.04472129 -0.11901766
0.08033686 -0.0054140813 0.068667375 0.20035934 0.053251315 -0.008165586 -0.13261288 0.022805724
-0.1410486 0.0110423 -0.11261141 0.014659839 0.016638462 -0.02756 0.08502232 -0.1760644
0.013060742 -0.04911886 -0.010093508 -0.04584044 0.06370214 -0.1437619 -0.021593167 -0.04107153
-0.20669307 0.105028704 0.17072622 -0.0022115544 -0.0682944 -0.04409237 0.028552016 -0.18724811
0.048350666 0.14409225 -0.08285062 0.034194525 0.051263425 0.17527644 -0.22939578 -0.0050874525
-0.047332417 0.09984783 -0.16409685 -0.1100726 0.08910158 0.2659932 0.0043484517 -0.07534929
0.03089152 -0.042142186 -0.1986565 -0.08269968 -0.022338638 -0.109063484 -0.029526964 -0.0032761544
-0.15701382 -0.0129591655 0.025258161 -0.113817245 0.009294266 -0.08359152 -0.026171332 -0.08198115
-0.14953944 0.09931013 0.05505631 -0.12599173 0.04787801 0.017015535 -0.0049133645 -0.04887376

fc3.bias f4 [10]
00000000: feeb 633d f9dc aa3b 888d 83bc 4dde aebb
00000010: ac5b 7e3d ac01 0dbd 40b7 67bd 3dca 03bd
00000020: 09aa 18bd bcd0 a13d
0.05564498 0.0052143303 -0.016058698 -0.005336559 0.062099144 -0.034425423 -0.056571245 -0.03217529
-0.037271533 0.07901141
